best_model_updated/best_model.pth (torch, 264299 bytes, 36 tensors)

embedding_layers.0.weight f4 [32, 8]
00000000: fc76 f6be 9408 a6bf 5785 453f c9e8 f63d
00000010: a270 3ebe 6492 b5be de85 7ebe f8fd 683f
00000020: 64eb 51be e49e 0d3f 2a24 94bf af97 183f
00000030: c913 f4bc 33a6 3e3f e16f c6be bc46 803f
00000040: a7d2 73bf e0ea 98bf 2ddd ad3f eb1c 92be
00000050: a016 233e 3cb6 f23f f242 833e cf57 753f
00000060: 4b8b 273e d7b9 fc3e 85b4 82be fb08 e03e
00000070: e24c cf3f 1b13 c1bf f550 31bf a639 98bf
00000080: 0929 393d f66e 9cbf 1bec d63e 5efd 843f
00000090: 041a 20bf 52d6 963f ad56 5fbe 2057 ccbd
000000a0: 772f b33e 3c0e 8d3f ddd8 98bf 7fb8 193f
000000b0: 8a6a f03f b739 253f 9a46 bdbf 966b e33f
000000c0: 29a1 3f3f 79b5 273f 3d71 623e 35a1 e33f
000000d0: 8fed 4a3f fb4c d4be 336d 683f f007 2e3f
000000e0: fb91 983f 7ff6 abbf 727e 943d 8022 393f
000000f0: d5de 31bf f9eb 183e 6582 a13f e6a4 973f
00000100: e039 093f 94e0 7a3e ddd3 5d3e 8434 7cbf
00000110: dbd2 febe 8eea b7bf fc0f 87bf ca04 22bf
00000120: ef0a b1bf bb1e 163d 5ffc 0e40 095b 05bf
00000130: b82f b13f c7e7 1c3e b475 0fc0 7b45 a43f
00000140: 288b 6dbe 3149 a63f 2fda 85bf 6472 5ebf
00000150: 57ea c2bf 51ea 18bf b27e 973d 0e7d 9f3e
00000160: e4bf 35bf 54e3 193d d9d9 9cbf b0a7 6e3f
00000170: b5b9 5f3e fdf1 3b3f b653 b73f 1d9b e0be
00000180: f5be 8f3f 97b1 ffbf deb5 3f40 9eab 2ebf
00000190: 98ae 3ebf b26a d73e 867a b8bf 22e8 eb3f
000001a0: 61ac 0040 d2e2 253d c62d 2ac0 13b7 613f
000001b0: 0795 f8be 7bad 483f 2456 523f e0e8 ecbe
000001c0: 20aa 05c0 1579 183f 25d3 d13f 208d 963f
000001d0: 37e3 e63f 51e2 7dbe 046f 5f3f 1e08 84bf
000001e0: 1ee4 4a3f 3e27 b2be e161 6dbf f46d 283f
000001f0: e6a4 57be 90b0 463d f311 f43e 0744 21be
00000200: 6f09 0940 e302 5c3f 76a8 0ebf 7ff4 24bf
00000210: a9f7 ea3e 20fd afbf 3902 7e3f 7fa0 da3e
00000220: 2125 8b3f 7f30 26be fab4 babe 9008 a03f
00000230: f39d 9abd e1d2 d63f 3dd6 7c3f cdf4 d6be
00000240: 8873 d5bf d8a6 a13f 8b9c 16bf 3c24 5cbe
00000250: 88cf ec3e 7e91 9c3f caf5 d9be 8dd4 8abf
00000260: dfc4 a7bf e0ae 133e 7c1b d03f a42d d53f
00000270: c717 c93e 6bca 0cbe 3015 db3f 669b 7b3e
00000280: 020e 983e da7c 9b3f d0f0 c4bf effc ad3e
00000290: ca1d 78bf f551 163e 3533 2a3f 4e98 44bf
000002a0: 8b90 4d3c ab6a 6c3f 63d4 8b3f 2fe4 b2bf
000002b0: a498 dbbd 709f 293f 1b8f ce3f 5aea 253f
000002c0: 1398 f33f 1f69 bd3f 3abb e93c b717 1c3f
000002d0: 59b2 0340 69a2 40be b4a6 663f 6d64 d4be
000002e0: 0f31 2a3f e720 9e3f c24c e5bf 8d5f 693f
000002f0: f13a c2be 6da0 4dbe 4649 27bf d703 02bf
00000300: 8eb0 c83f 57cb ecbc 7156 813e e85d 8abf
00000310: 0ba1 f6bf aec2 08bf d094 673e b011 5a3e
00000320: c6a2 58bf c623 f8be 635f cdbf b26e 093e
00000330: 3264 acbe f8e0 7c3f 4206 0d3d 6a4a bebe
00000340: 7d0a 283f 5651 7e3f 1495 91bf e3f5 9f3f
00000350: a69b 673e d75d 07c0 f46b 47be 1e37 2f3f
00000360: 6ef9 bb3f c69f bbbd 7499 8cbe 324b c13e
00000370: be52 9f3e 9c82 1a3f 1515 c33e 6547 ef3f
00000380: e7dc ce3e c7bb 6cbf 35bb 81bf 9db4 ee3f
00000390: 6ae7 74be 66c6 c73e 3b12 083f 6c4a 6ebf
000003a0: 83c9 e5be 2a7f 86be 6c3a a93e 3dde 093e
000003b0: 5370 993f 8c99 a93f ea0b 1e3f b30c 1240
000003c0: aa01 0bbf 06ee 943f e28d 983f 66b4 733f
000003d0: 2309 1a40 44ee 2dc0 55b2 edbe fdfe 393f
000003e0: 5fa2 713f 5804 773f 0dad 653f 86ff 0dbf
000003f0: 957f 2cbf 8984 b13f f208 81bf 9ad0 58be
-0.48137653 -1.2971368 0.77156585 0.12056119 -0.18597654 -0.3546325 -0.24855754 0.91012526
-0.2049995 0.5532057 -1.1573536 0.5960645 -0.02979459 0.7447235 -0.38757232 1.0021586
-0.95243305 -1.1946678 1.3583122 -0.28537688 0.159266 1.8961864 0.25637013 0.9583711
0.1636173 0.49360535 -0.2552835 0.43756852 1.6195338 -1.5083956 -0.69264156 -1.1892593
0.04520515 -1.2221363 0.4197701 1.0389822 -0.62539697 1.1784155 -0.21810408 -0.09977555
0.3499715 1.1019969 -1.1941181 0.60047144 1.8782513 0.6454119 -1.4787171 1.7767208
0.74855286 0.6551128 0.2211351 1.7783571 0.79268736 -0.4146498 0.90791625 0.6798086
1.191955 -1.34346 0.0725068 0.7231827 -0.6948064 0.14933766 1.2617918 1.1847198
0.53603935 0.24499732 0.2166285 -0.9851763 -0.49770245 -1.4368455 -1.0551753 -0.6328856
-1.3831462 0.0366504 2.2341535 -0.52092034 1.3842688 0.15322791 -2.241559 1.2833704
-0.23197615 1.2991086 -1.0457209 -0.86893296 -1.5227765 -0.5973254 0.07397212 0.31150097
-0.70995927 0.037570313 -1.2253982 0.9322462 0.21848185 0.7341612 1.4322422 -0.43868342
1.123015 -1.9976071 2.9954753 -0.6823062 -0.7448516 0.4207359 -1.4412391 1.8430216
2.0105212 0.040499516 -2.6590438 0.88169974 -0.485512 0.7838971 0.8216269 -0.4627142
-2.0885086 0.59559757 1.6392561 1.1761818 1.803809 -0.24793364 0.8727877 -1.0314977
0.7925433 -0.34795564 -0.92727476 0.65792775 -0.21058998 0.048508227 0.47669944 -0.15748607
2.1412008 0.85941905 -0.557258 -0.6443557 0.45892075 -1.3749123 0.9922214 0.42700574
1.0870706 -0.16229437 -0.364662 1.2502613 -0.07549658 1.6783105 0.987644 -0.41983643
-1.6675882 1.2629042 -0.58832616 -0.21498197 0.46252084 1.2231901 -0.42570335 -1.0846115
-1.3106955 0.14422178 1.6258388 1.6654553 0.39275953 -0.13749091 1.7115841 0.24570999
0.29698187 1.2147477 -1.538599 0.33982036 -0.96920455 0.14679702 0.66484386 -0.767949
0.012546669 0.9235026 1.092419 -1.3975886 -0.10722473 0.6625891 1.6137422 0.6481072
1.9030784 1.4797705 0.02853166 0.60973686 2.0577605 -0.18811955 0.9009812 -0.4148287
0.6648111 1.2353791 -1.791405 0.91161424 -0.37935594 -0.20080729 -0.6534618 -0.5078711
1.567888 -0.028905554 0.25261262 -1.0809908 -1.9267896 -0.5342206 0.22615361 0.2129581
-0.8462337 -0.48464793 -1.6044735 0.13421133 -0.33670193 0.98780775 0.034429796 -0.37166148
0.65641004 0.9934286 -1.137362 1.2496914 0.22617969 -2.1151025 -0.19474775 0.6844348
1.4685495 -0.09161334 -0.27460825 0.37752682 0.31117815 0.60355544 0.38102022 1.8693663
0.4040291 -0.92474025 -1.0135256 1.8648869 -0.23916402 0.39018553 0.5315282 -0.9308231
-0.44880304 -0.26268893 0.33052385 0.13463683 1.1987404 1.3249984 0.6173693 2.282025
-0.54299414 1.1635139 1.1918299 0.9519714 2.4068077 -2.7176676 -0.4642512 0.72654706
0.94388384 0.96491003 0.8971718 -0.5546802 -0.67382175 1.3868572 -1.0080855 -0.21173325

embedding_layers.1.weight f4 [32, 8]
00000000: adfd e8be cc61 57bf b4ea 853f 5f9b 403f
00000010: 2f38 06bf dfc0 c73e a5c2 7e3f 5027 453f
00000020: 29cd c73e d356 443f 2dcc 6cbd 60ec 69bf
00000030: a823 d3bc 254f 2ebf cf5e a6be 1c47 b13f
00000040: 3621 25c0 fa48 533f e27c 843d 64c7 6d3f
00000050: 6768 ab3f 91f6 3ebf 4ea0 00be 517e 5ebe
00000060: 43ee 36bf 2f0a 90bf b8e1 b4bd fc3e febe
00000070: 8daf 85bc d6ae b9be 5ab9 c9bf 7420 97be
00000080: bbe0 a3bf 1eef d33b a9a0 e53d 36a1 9abe
00000090: a16d b5bf f587 943f 9695 d93e d044 b3bf
000000a0: 7a4c d83f 26fb 233f 7913 7e3f b652 6dbf
000000b0: c927 afbe fc2f 81be d405 b43f f889 cabe
000000c0: 0f6d b2be 103d 0b3f 93ba 803e 6e27 53bf
000000d0: 24ab 03bf ade7 f8be ce59 b03f cad3 83bf
000000e0: d1b8 4ebd 0110 e5bf 19d7 60bf 983f ae3f
000000f0: 7537 d63f 3160 be3e 9810 ad3f 4a2d 483d
00000100: 2fe1 fabc c279 ab3f cee2 d5be 60ba 343f
00000110: 2d9e af3e 7c51 a3be 11bb bf3e 41fb 853f
00000120: 0f19 963f a547 083f 56d0 a43f 58f8 af3e
00000130: c4fe 93bd b203 a83d 69f4 dabf 0dc9 0abe
00000140: 3fa3 953d aa31 803f 8695 f9be 1ad7 ec3f
00000150: bfdb 8a3f 0cb0 0ebd 7be0 9d3f e011 fa3f
00000160: afd1 83bf 3ac5 a7be 953a 66bb 72f5 033f
00000170: 2071 5b3f 4757 1c3f 9889 bb3e d21b 343f
00000180: 985d 893f 9ed4 213d dd36 45be 75cf c23e
00000190: 5174 e73e e268 933f edfa cbbd a884 cb3d
000001a0: 89da d13c 6a29 2d3e 1d6a 0ebf b2d6 d8be
000001b0: 2b65 463e 6f7d 223e 43a4 2fbf a406 423f
000001c0: 5d92 653f 1495 b7bf 1852 acbe 3c3c 223e
000001d0: 8157 c33f b96e a03f a58c 4bbf 83c6 ae3f
000001e0: fbd6 e2bf 4fcd a33f b32f d5be 97f2 0abf
000001f0: a5e1 833f b730 8b3e 1168 f23b 2f71 c2bf
00000200: 816c 553e 4054 93be 31bf 863f 8255 00be
00000210: 0eb4 dcbf ce2d c2bf a092 d2be 9c0a b43f
00000220: ef70 86bf c7b6 b9bf 762f 473f bb35 583d
00000230: 80c9 c4bf afa9 fc3d c0ec 46bf e6f8 f73f
00000240: 7dde 8d3f 08e8 313f 89ce 0dc0 009f 623f
00000250: 7a21 bd3f 18ce ce3f f77e 40bf f5d2 8ebc
00000260: e199 5abf 8a0c 2fbe afec 53bf 7dee b83e
00000270: 6174 7c3f 2afc 14be df75 81be 16d3 39bf
00000280: 7713 0040 60f4 e7be d454 ccbf a799 84bf
00000290: 37c5 1abf a5f8 96bf 0621 25bf 37f7 0d3e
000002a0: ccf9 d0bf 0ed2 ad3f 7d00 d4bf 84df c9bd
000002b0: ae71 c2bf 8147 fc3e 13ae a83f 9f91 21bf
000002c0: a50a a0be 68b2 3a3f eb8b 0e3f be66 d53e
000002d0: 6597 b03f 5e22 653e 9c74 b9bf e694 003e
000002e0: 02ad 2b3f 0c3f 58be 71d1 5a3e c561 3b3f
000002f0: e601 d23d ea78 fb3f 9c45 82bf 0daa 053f
00000300: 92d8 bfbd 3ab9 fd3e 97d2 bebf 421f 4c3d
00000310: 5a56 13bf 4e0d 493d 1389 4cbf dfa7 95be
00000320: 9594 8dbe 2ed6 8ebe b08c 383e e606 d1be
00000330: b5be 573f cbb9 873d aa76 493f eafb 1b3d
00000340: 1ca2 46be f259 7dbf b1c7 1b3c 4c58 473e
00000350: c623 d83f 3490 8abf 5199 f8bf 3f82 1abf
00000360: 17a1 9a3e 8ae7 40bf 6b8f 29c0 d4cf 9bbd
00000370: fd8f 06c0 a522 503f 7705 d6bf d337 9a3f
00000380: 7802 ce3e 2762 a93f 47e8 aebf c4d6 e73c
00000390: 6425 9d3f 8c39 ea3e 68e3 4b3d 6208 02bf
000003a0: 772e ac3f 1869 c6bf 8448 46bf 4529 ff3c
000003b0: a7c4 f23e e2dd 9fbf 52ab 9fbf 068c c9bf
000003c0: 5b6f 05bf 8da4 39bf 1b78 7bbf b6ff d23f
000003d0: b9c6 22c0 54f0 603f a412 533e c2a8 92bf
000003e0: ed67 0cbe 2c16 cfbd 85c6 87bf 84d5 b7bf
000003f0: 847f bb3e 915d 573f 5ed2 833f a396 cd3f
-0.4550604 -0.841336 1.0462251 0.7523708 -0.5242948 0.39014336 0.99515754 0.7701311
0.39023712 0.76694983 -0.057811905 -0.91376305 -0.025773838 -0.68089515 -0.32494208 1.3849826
-2.580152 0.8253323 0.06469132 0.9288237 1.3391236 -0.7459498 -0.12561151 -0.21727873
-0.7145731 -1.1253108 -0.08832115 -0.49657428 -0.01631906 -0.36266202 -1.575969 -0.29516947
-1.2802957 0.006467714 0.11212284 -0.3020112 -1.4174081 1.1603991 0.42496938 -1.4005375
1.6898339 0.640551 0.9924846 -0.9270433 -0.3421004 -0.25231922 1.4064279 -0.39558387
-0.3484883 0.5439005 0.25142345 -0.8248204 -0.51433015 -0.48614255 1.3777406 -1.0299008
-0.050469223 -1.7895509 -0.8782821 1.3613157 1.6735674 0.37182763 1.3520689 0.048871316
-0.030624954 1.3396533 -0.417746 0.70596886 0.34300366 -0.31898105 0.37447408 1.0467302
1.1726397 0.5323432 1.2876079 0.3436916 -0.07226327 0.0820383 -1.7105838 -0.13553257
0.07306527 1.0015156 -0.4874689 1.8503144 1.0848311 -0.03483586 1.2334131 1.9536705
-1.0298365 -0.3276766 -0.0035130132 0.51546395 0.8571949 0.61070675 0.36628413 0.7035495
1.0731688 0.03950941 -0.1925921 0.38048902 0.4520593 1.1516383 -0.0995997 0.099374115
0.025616901 0.1691033 -0.55630666 -0.423513 0.1937453 0.15868162 -0.6861002 0.7579138
0.8967646 -1.434237 -0.33656383 0.1584329 1.5261079 1.253379 -0.7951148 1.3654331
-1.7721857 1.279703 -0.41637954 -0.5427641 1.0303236 0.27185604 0.0073976596 -1.5190791
0.20842172 -0.28775215 1.0527097 -0.12532619 -1.7242448 -1.5170228 -0.4112749 1.4065738
-1.0503215 -1.4508904 0.77806795 0.052785616 -1.5373993 0.12337052 -0.77705 1.9372833
1.1083523 0.69494677 -2.215731 0.88523865 1.4775841 1.6156645 -0.7519373 -0.017434577
-0.8539105 -0.17094627 -0.82783026 0.36119452 0.9861508 -0.14549318 -0.2528524 -0.72587717
2.001188 -0.4530363 -1.5963387 -1.0359391 -0.60457176 -1.179463 -0.64503515 0.13863836
-1.6326232 1.3579729 -1.6562649 -0.09857085 -1.5190942 0.49273303 1.3178123 -0.63112825
-0.3125812 0.72928476 0.5568225 0.4167995 1.3796202 0.22376391 -1.4488711 0.125568
0.67060864 -0.211178 0.21368958 0.7319606 0.10254268 1.9646275 -1.0177493 0.522126
-0.093674794 0.4955538 -1.4908017 0.049834497 -0.5755364 0.049084954 -0.7989666 -0.29229638
-0.27652422 -0.2789778 0.18022418 -0.40825576 0.8427537 0.06627234 0.7869669 0.03808204
-0.19397777 -0.9896537 0.009508059 0.19467276 1.6885917 -1.0825257 -1.9421788 -0.6035499
0.30201027 -0.753533 -2.6493785 -0.076079994 -2.1025383 0.81302863 -1.6720418 1.2048286
0.40236259 1.3233079 -1.3664635 0.02830065 1.2277036 0.4574703 0.04977742 -0.5079404
1.345168 -1.5500822 -0.774544 0.031147609 0.4741566 -1.2489588 -1.2474158 -1.5745857
-0.5212304 -0.7251671 -0.9823014 1.6484287 -2.543379 0.8786671 0.2061258 -1.1457751
-0.1371152 -0.10111651 -1.0607458 -1.4362035 0.36620724 0.84127146 1.0298574 1.6061596

embedding_layers.2.weight f4 [32, 8]
00000000: ebee 1040 7d55 afbd 7ffd 3a3f 1d56 5e3d
00000010: 3e20 2e3f af9a de3e 8d87 19be 7ee0 1440
00000020: 9aa4 603f f3b4 383e ccd8 66bf 6b98 06c0
00000030: dffc dabe fcca 373f 6ca7 d33f cda7 2b3e
00000040: 364c 9dbf 4f2e 393f 6224 633f fe6e 803e
00000050: 3f05 76bf 3b56 1a3f f5d7 35bf b63c 00c0
00000060: 96cc 9abe c8af 99bf c6ef d03f 8a50 97be
00000070: 7691 27c0 069c a43f 6f2c 713f 0465 55bf
00000080: b580 0440 d2e8 00c0 7c49 0f3f 8d6b 1fbf
00000090: e756 523f 24ba 1dbd dbcc 943e aba1 d53f
000000a0: 9d84 ac3f 8d96 82be 80c9 f63d 5b77 7dbf
000000b0: fbc5 29bf 563d 233e 9bd8 623f 7de9 e5be
000000c0: 5fa7 d9be a8d3 cb3e cb4a b53e 5b59 93bf
000000d0: 301c e83f f58a 653f f4fc 4fbf 7c7b f63e
000000e0: 2dc5 813f 5c85 adbf 40f5 483f 73ea eb3e
000000f0: 91e2 04bf 7581 783f 2b3f 883f 61bf 2bbe
00000100: 133d b1be 2a76 02c0 7d0f 02bf e860 b53f
00000110: 15bf 033e cc72 51be c497 0bbf 1bd2 593f
00000120: c83e 093e 932b 593f d0c4 c43f 954e de3f
00000130: 5036 fb3f 21d6 0540 23a5 d53e e342 a83e
00000140: e1d4 a7bf db6e 94bd 7ec1 433f 47ed 9fbe
00000150: de43 0fbf 044b 703e 5746 62bf cba5 37bf
00000160: 6deb 253e 6a88 29bf e4f6 1abf e17c 2740
00000170: 90e3 fbbe 6697 62be 426c 2cbe 340f 4b3f
00000180: 4d17 013e cbdb fabf 05a5 bb3f 0e9c 9b3f
00000190: 6656 433e ee44 b03e cc39 58be d40e 95bf
000001a0: 8da7 c2bf 81d3 333f 76c2 203f 2847 783f
000001b0: 9cd7 6f3f a4ed 10bf e384 1cbf 85d2 b33f
000001c0: 4c96 02c0 bbab c0bf 8d3c 00c0 70c6 86bf
000001d0: 3540 9cbf 20df 5e3f 4646 753f bcc7 8dbf
000001e0: 4ec5 4cbf 971c 9abf a1e4 16be 6813 d2bf
000001f0: a8cb ba3f 2243 08be 5397 5bbf 4dab a33d
00000200: 47d0 683f dbb9 cb3f 3c38 c43f a424 a13e
00000210: 3456 8ebf 1bca 803f edcc 85bf 639b 82bf
00000220: 69fd 47bf 08dc eebe 2d97 22bf 46fb 303f
00000230: b9dd adbf 62cc 56bd d45d 90bf 45d7 fdbe
00000240: 178f d43f d1c5 d9bc 9ed4 c8be eac6 c0bf
00000250: 2a48 d6bd 4661 e23d f376 c73f 1922 d9be
00000260: 0eea 4f3f 993a a0bf da65 00c0 caee 24c0
00000270: 05aa e13e a325 593f 75ad d7be ed2c f2bf
00000280: 8b89 e73f 5cc9 203f afad b93e 8796 0fc0
00000290: f0b2 ffbd e4d2 09bf e63b 67bf ca2b 7f3f
000002a0: 46cf 143e 4815 abbe f19d 91bf b418 4b40
000002b0: d03c 323e e768 19bf fae9 c2bf e2f2 4dbc
000002c0: 5631 53bf 9314 0fbf 8959 273e a33e 033f
000002d0: 8775 eb3d a6ff babf 8c7d a43e 0b67 07c0
000002e0: 0fb8 a63f 8224 be3e b3f4 813f 5631 e7be
000002f0: ca22 19be 6203 393f e334 9ebf cffa 283f
00000300: fbaa 62c0 17f0 acbb 7116 453e 48a3 fdbf
00000310: 7c66 02bf d707 9dbf e298 99bf 294b 30bf
00000320: a6bf 35be 16dc f73e b396 38be 5600 983e
00000330: 8488 973f b1f3 dfbe f5f8 873d 51b2 f5bf
00000340: c036 073f f2a4 4f3d eff4 403d 2a93 31bf
00000350: e397 10c0 d692 14c0 12f6 c63f 0070 26bc
00000360: aab3 9cbe eeae 05bf 29a0 0740 c5cd 5fbf
00000370: 1717 c63e 65f8 2940 ffbe b3bf 4123 17c0
00000380: cd36 0b3e fda4 473f 034d 13bd c948 42bf
00000390: d9e6 7a3e c841 263d 43bc 85bf 190a c13e
000003a0: 9cbe cb3e 078e 83bd 392e 1740 c63f ff3e
000003b0: d4ff a83f 4048 d4bd 6941 de3f 2767 063e
000003c0: e31d 9cbf 40d1 a7be 4f57 8c3f db67 823e
000003d0: 2c6c 743e d47d c0be f9db d9bf 03e3 9d3e
000003e0: 73a7 89be 0dab 6d3d 818d 2e3e ea7f e1bf
000003f0: f868 8fbf 3927 ad3f 3fdd 2b3e e1b6 0c3f
2.2645824 -0.085612275 0.73043054 0.054281343 0.6801795 0.4347739 -0.14993115 2.326202
0.8775116 0.18037777 -0.90174556 -2.1030529 -0.4277105 0.71794105 1.6535468 0.1676323
-1.2288883 0.72336286 0.8872739 0.2508468 -0.96101755 0.6028783 -0.7103265 -2.0037055
-0.30234212 -1.2006769 1.6323173 -0.29553634 -2.6182532 1.2860115 0.94208425 -0.8335726
2.0703557 -2.0142102 0.55971503 -0.62273484 0.8216385 -0.038507596 0.29062542 1.6689962
1.347797 -0.25505486 0.12050152 -0.99010247 -0.6631772 0.15941367 0.88611764 -0.449047
-0.42510507 0.39809918 0.35408625 -1.1511644 1.8133602 0.89665157 -0.8124535 0.48141086
1.0138298 -1.3556323 0.7849922 0.46077308 -0.5190821 0.97072536 1.0644277 -0.16772224
-0.34616908 -2.0384622 -0.50804883 1.4170198 0.12865861 -0.20453948 -0.5452845 0.8508622
0.13402855 0.84832114 1.5372562 1.7367731 1.962595 2.0911944 0.41727552 0.3286353
-1.311184 -0.072477065 0.7646712 -0.31235716 -0.5596293 0.23466116 -0.8838858 -0.71737355
0.16203089 -0.66223776 -0.60532975 2.616997 -0.49197054 -0.22128066 -0.16838172 0.79320073
0.12606545 -1.9598325 1.4659735 1.2156999 0.19075927 0.3442759 -0.21115798 -1.164515
-1.5207382 0.70244604 0.62796724 0.96983576 0.9368837 -0.5661261 -0.6114027 1.404862
-2.0404234 -1.5052408 -2.0036957 -1.0529308 -1.2207094 0.8705921 0.95810354 -1.1076579
-0.79988563 -1.2039975 -0.14735653 -1.6412172 1.4593401 -0.13306859 -0.8577778 0.079916574
0.90942806 1.5916094 1.5329661 0.31473267 -1.1120057 1.0061678 -1.0453163 -1.020367
-0.7812105 -0.46652246 -0.63511926 0.6913341 -1.3583289 -0.05244101 -1.1278634 -0.495783
1.6606168 -0.026583584 -0.39224714 -1.5060704 -0.10462983 0.1105371 1.5583175 -0.42408827
0.81216514 -1.2517883 -2.0062165 -2.5770745 0.44075027 0.84823054 -0.42124525 -1.891996
1.808885 0.6280725 0.36265323 -2.2435625 -0.124853015 -0.5383742 -0.9032577 0.9967619
0.14532194 -0.33414674 -1.1376325 3.1733828 0.1740601 -0.59925693 -1.5227654 -0.012570115
-0.82497156 -0.5589077 0.16342749 0.5126745 0.11497026 -1.4609268 0.32127035 -2.1156642
1.302492 0.37137228 1.0152801 -0.45154828 -0.14954677 0.72270787 -1.235989 0.66007704
-3.5416858 -0.0052776444 0.19246842 -1.9815454 -0.5093763 -1.2268018 -1.1999781 -0.68864685
-0.1774889 0.484101 -0.18026237 0.29687756 1.1838536 -0.4374061 0.06639282 -1.9195043
0.52817917 0.050694413 0.047108587 -0.6936518 -2.2592704 -2.3214622 1.5543845 -0.010158539
-0.30605823 -0.52220047 2.1191504 -0.87423354 0.3868949 2.6557858 -1.4042662 -2.3615267
0.13595124 0.7798613 -0.035962116 -0.7589231 0.24502124 0.040590078 -1.0448078 0.37703016
0.3979386 -0.06423574 2.3621962 0.49853343 1.3203073 -0.10365343 1.7363712 0.13125287
-1.2196621 -0.32776833 1.0964144 0.2546986 0.2386939 -0.37596 -1.7020255 0.3083726
-0.26885566 0.058024455 0.17046167 -1.7617161 -1.1203909 1.3527595 0.16783617 0.5496655

embedding_layers.3.weight f4 [32, 8]
00000000: a42b c43e 9c18 dbbe 1433 c03c c299 6cbe
00000010: b614 993f 9e48 a33e ea72 c33e e6af 16be
00000020: f7e9 af3d 2aae 24bf 6c59 583f ea26 0b3f
00000030: 12e7 19bf 744c e9bd 4782 07bf 9fc0 4dbf
00000040: 63ab 903e 97ac f4be d87d 8dbf 0cf7 8bbf
00000050: 66af b73f 5a72 173f 2927 3fbf fc03 ca3c
00000060: aa8c 23be 14e6 a53f 5c93 c53e 8d2e e3be
00000070: b381 493f ba82 16bf 9462 723f e731 de3f
00000080: 2db4 493d cfd9 d33e 5055 6dbf 39a1 10bf
00000090: 0f40 9ebf 9c79 b2bf 1435 533f 36e6 273f
000000a0: aeac 07bf 2c46 eb3e 9a86 683f 6566 193f
000000b0: 7186 fdbc 45e9 cabe 0997 f9bf a23e 0fbf
000000c0: 79b6 b13f 9b36 07bf 2952 bebf 75ce 933d
000000d0: 630c 94bf c310 8a3f 3667 2140 2ea0 15bf
000000e0: c84b 36bf 8747 a8bd 89db bf3f 6bc1 ca3e
000000f0: 8868 7a3f 0443 6abf 62be d7be b138 a23f
00000100: 6aa8 683e 1212 dcbf b218 afbf 6baf 5abf
00000110: 0bbb a73f f929 b73d 0dcc b4bd 3740 7ebf
00000120: b1b5 15bf 44c9 6c3e b85a 79be 0a56 32bf
00000130: a6b2 b0bf ebae 9ebe d8a7 f8bd dd68 f23f
00000140: 1a00 de3f 037a 6e3f 004e 53bf f273 5e3f
00000150: db58 213e ea92 63bf df11 b33d dbcd 693f
00000160: 54a5 bf3e b4e1 42bf 9ad3 c4bc 9471 653e
00000170: 22f6 1e40 87be e23d 58de 433f de4b 04bf
00000180: 7bd4 2a3f 4f70 06bf 5705 cf3e 2828 96bf
00000190: 634d 6a3f a0b6 9a3e 59f1 a63e 406c 2abf
000001a0: 9b2b a03d 689c abbf 7759 7cbf 41da 213f
000001b0: 2045 02bf c57f 513e 0803 81bf c09a b6bf
000001c0: 3038 9abe 7878 13bf 6083 0bc0 1693 663f
000001d0: f74d dd3d 372d 3c3f dfc3 f4be aefe 30bf
000001e0: 5386 0cbe 1bb3 53bf 77fc 2040 8209 c63e
000001f0: d38a 383f 94fd 0fbf b9a4 013f 95b7 ae3f
00000200: 9e37 273f cbdf dbbd 5d4e 8f3f 6a10 42be
00000210: 3306 963e 724a febf a8a7 d6be 3475 3040
00000220: e3d2 d03e 075d fa3c be9c 623f ddec 44bf
00000230: 8496 c23f 72ed df3e bc7c 40be 369c 853f
00000240: 1249 90bd 643d 36bf 43d5 c3be 5091 033f
00000250: 1407 83bf f589 d9bf 75bb f43d 6a5c 733f
00000260: 350b 0cbf 8e10 70bf 3f49 cebf 59bc 84bd
00000270: 4853 4abf e9ed f2be 43c2 d6be 4555 db3f
00000280: b752 26be ec05 28bf 988c bcbf 3a28 ff3e
00000290: e130 a53d 98bb 143e 1057 87be 3e72 2dbd
000002a0: 6c1c b2bf 2d83 3fbf 3770 f23f f513 903f
000002b0: 894e c73e c865 3dbf 637c 05c0 2ee5 a3be
000002c0: 1693 d6be 2e59 f5bf aa8e a13e 1017 bc3f
000002d0: d03d 723e 5abb ccbe 5ecc 913f f1c4 9bbd
000002e0: 75d3 65bf 91d8 f1be 7d3a c9be e011 7fbe
000002f0: a138 51bf a9fb 46be b6d5 d1bf feab c7be
00000300: 097a 25be 13d0 7e3f ae26 dd3e 9992 9bbf
00000310: 3e47 ddbf 7c00 3240 158e d9bd 78dc 1dbf
00000320: 0b31 3cbf 15a2 de3e b8f6 b1bf 88bb 8a3e
00000330: 645b 7e3e 6a0d d73f 5c60 f2be 8b38 79bf
00000340: 301c 963e a8bb c8bf f3b9 7fbe 0054 98bf
00000350: 120e a03e d7e8 0f40 520a 93be f660 423f
00000360: d17b 2e3f 78af 333f 0eeb ac3f 4a93 85bd
00000370: ee48 e3bf 5642 abbe ea68 e43e d4ad 40be
00000380: 809f b33f f5e8 29bf 9f36 81be e8ef 293f
00000390: b94e 41bd c160 073f e1d7 5fbe 0b11 a8bf
000003a0: a44d 61be 4894 bf3e 4aa3 8fbf 60b9 44be
000003b0: 9b10 9ebf c81e 8bbf cb78 8f3f 79f8 08c0
000003c0: 74a2 c03f 9027 2dbf 9b11 04bf dbda 6abf
000003d0: 8965 2ebf 4dea 26be 00be cbbf c01f 59bf
000003e0: 3311 643f 8ca5 503f f524 d0bd 332a d13f
000003f0: 1439 5abf db15 9dbe 0454 65bd f03f fbbd
0.38314545 -0.42792213 0.023461856 -0.23105529 1.1959445 0.3189134 0.3817361 -0.14715537
0.08589547 -0.64328253 0.84511447 0.54356253 -0.6011821 -0.113915354 -0.5293316 -0.8037204
0.28255758 -0.47787926 -1.105403 -1.0934768 1.4350402 0.5915886 -0.7466913 0.024660103
-0.15971628 1.2960839 0.3858899 -0.44371453 0.7871353 -0.5879322 0.9468167 1.7358979
0.049244095 0.41377112 -0.927083 -0.56496006 -1.2363299 -1.3943362 0.82502866 0.6558565
-0.52997863 0.45951974 0.90830386 0.59921867 -0.030947896 -0.39631096 -1.9499217 -0.55954945
1.3883811 -0.52817696 -1.4868823 0.07217113 -1.156628 1.0786365 2.5219245 -0.5844754
-0.71209383 -0.08216768 1.4988872 0.3960069 0.9781575 -0.9150851 -0.42137438 1.2673551
0.22720495 -1.7193015 -1.3679411 -0.85423917 1.3103956 0.089435525 -0.08827982 -0.99316734
-0.58480364 0.23123652 -0.24351013 -0.69662535 -1.3804519 -0.30992827 -0.12141389 1.8938252
1.7343781 0.93154925 -0.82540894 0.8689567 0.15756552 -0.8889605 0.08743643 0.91329736
0.37430823 -0.76125646 -0.02402668 0.22406608 2.4837728 0.110714965 0.76511145 -0.51678264
0.6673047 -0.5251512 0.4043376 -1.1731005 0.9152433 0.30217457 0.3260601 -0.66571426
0.07820817 -1.3407106 -0.9857401 0.63223654 -0.50886726 0.20458896 -1.007905 -1.4265976
-0.30120993 -0.57605696 -2.1798935 0.90068185 0.10805886 0.7350649 -0.47805688 -0.6913861
-0.13723116 -0.8269517 2.5154092 0.3867913 0.7208683 -0.56246305 0.5064197 1.3649775
0.6531924 -0.107360445 1.119579 -0.18951574 0.29301605 -1.9866469 -0.41924787 2.7571535
0.40785894 0.030561937 0.8852042 -0.76923925 1.5202184 0.43735844 -0.18797582 1.0438297
-0.07045187 -0.71187425 -0.38248643 0.51393604 -1.0236535 -1.6995226 0.11949817 0.9506289
-0.547046 -0.9377526 -1.6116103 -0.06481237 -0.7903333 -0.47447136 -0.41945085 1.7135397
-0.1624249 -0.65634036 -1.4730406 0.49835378 0.080659635 0.14524686 -0.2643361 -0.042345278
-1.3914924 -0.74809533 1.8940495 1.125609 0.38927105 -0.7398343 -2.085717 -0.32010788
-0.41909093 -1.916784 0.31554157 1.4694538 0.23656392 -0.39986688 1.1390493 -0.07605923
-0.8977578 -0.4723554 -0.39302436 -0.24909163 -0.81727034 -0.19431938 -1.6393344 -0.38998407
-0.16159834 0.99536246 0.43193573 -1.2154113 -1.7287366 2.7812796 -0.10622803 -0.61664534
-0.73512334 0.43483034 -1.3903418 0.270962 0.2483955 1.6800969 -0.4733914 -0.973519
0.2931838 -1.5682268 -0.24973278 -1.1900635 0.31260735 2.2485864 -0.2871881 0.759292
0.6815768 0.7018962 1.3509233 -0.06522234 -1.7756631 -0.33449048 0.44611293 -0.1881631
1.403305 -0.6637109 -0.25236985 0.6638169 -0.047194216 0.5288201 -0.21859695 -1.3130201
-0.22002274 0.37417817 -1.1221707 -0.1921134 -1.2348818 -1.0868769 1.1208738 -2.1401656
1.5049577 -0.6763849 -0.51589364 -0.91740197 -0.6812368 -0.16300316 -1.5917358 -0.8481407
0.89088744 0.81502604 -0.10163299 1.6341003 -0.85243344 -0.30680737 -0.055988327 -0.122680545

embedding_layers.4.weight f4 [32, 8]
00000000: 1d81 8e3f 1d30 82be 55e5 8f3e b53e 0ac0
00000010: a8d5 c53f ed17 7ebd a2ad d43e 4471 653f
00000020: b064 75bd 3606 463f 8703 d53e 9d6b 1d40
00000030: 7958 adbe ddfc 8fbe 81a0 8cbf 640b 9bbf
00000040: 02ed b1bf 4f42 223f d53f 013f b126 ffbe
00000050: 07e3 9e3e f2ed 593e 84c5 0fbe ae10 b7bf
00000060: a681 af3f 413e 92bc 4c41 8abf 30b4 a53e
00000070: 75c0 2abf 9d26 b5bf b0b4 eebf e3d1 713f
00000080: 6493 323f 3f81 7cbf 7622 3abe 2cab cc3f
00000090: 4dc8 90bf 8894 673f 9b35 a43e 6abb f33e
000000a0: 72c4 823f 2c57 e13e 238e a43f 7b82 8d3f
000000b0: b8f4 cfbf 6b31 f6be 06a3 213d bf4a 3c3f
000000c0: 8173 49be 7a34 83be 4852 d33f 74c6 c3bf
000000d0: ca0d 2c3f e1df 073f 70a9 163e 871f e73f
000000e0: 42bc 1f3f ff14 b03f 601c 0e3f 677a 3abe
000000f0: a5ae 373f aeca e1be b000 c3bf aa4f afbe
00000100: aede 26c0 ae5f d53e 66c2 b63f 04cf 583e
00000110: 0411 d4be 429e 0ebd 0822 65bf d206 4fbf
00000120: cd55 9aba 41dd 833f ca00 c2bf 532f 9dbe
00000130: ab81 2cbe d33d 24bf a6b3 4a3f 3180 7b3d
00000140: 55d2 d53d fe55 943f c2c3 a33f 4dd2 543e
00000150: 6984 4cbe 7fd3 b33f 0a78 9e3f 6b73 3a3f
00000160: bd34 77be b02f a0bf 1112 4abf 4959 5a40
00000170: b226 ccbe 5de5 893f 45fb e03e 4eda 4e3f
00000180: a7bc 26bf bfc2 713f f0df 93bf 91dd 2fc0
00000190: de1e 03bf 918d f0ba e7c8 213f a6af 0fbe
000001a0: 856f 22bf 706c f0bd d73a a5be 2694 4e3e
000001b0: 47d5 97bf 8058 353f 0036 53bf 8ffb 8f3e
000001c0: 23a2 2f3e 1f97 a73f bbd8 22b9 3cb3 273f
000001d0: f0c0 02bf b6bb 0440 3aaa a9bf 2078 00c0
000001e0: 8349 a63f d753 35bf 3084 9d3f 78ab 11bf
000001f0: 8149 b4bf dc15 e8be 518d 5840 74fe 0640
00000200: ec5c 7b3e 068e b9be 5438 9c3e 7f64 54be
00000210: ae92 463f 798c d9bd f5cf eb3f c1b8 cc3e
00000220: 88a9 0abf 28cf 8d3f 572c 85be 2394 733f
00000230: af3f bcbe cb83 883f 4af6 37be d249 ddbf
00000240: 3d89 54bf 5eec 3b3f fa38 aebf d42f b2bf
00000250: 99a8 603e 4bc2 a0bf 6459 9c3f 6c56 b53f
00000260: fe10 b63e d7c5 0bbf 4465 7e3e 0cbc 3cbf
00000270: 78b3 b63c dcd0 a93f 906f 71bf 82f9 a93f
00000280: 25b9 7d3f 4577 debf 55d1 a7be 75ec c33f
00000290: 0a05 7c3f 8d65 123e cf69 e73e 1f8f 9dbf
000002a0: 45b8 ad3f e452 cebf 29ee aabc 24d3 873e
000002b0: 9aef 473f 3fa5 88be fd03 833f dded 233f
000002c0: 923c 88bf ee32 49bf cc01 f2bf 6e49 b3bd
000002d0: cab2 033f 38ec a6be 507d e0bd 5408 613f
000002e0: 92fc 6ebf 4005 a63e e303 6b3f 55bd 793f
000002f0: 7af9 65bf 8674 ef3d 4a5e 643f 4204 3f3e
00000300: fd4c e6be faa2 d2be 1208 953f 676b 4ebe
00000310: ced0 a03f 0bbc 9a3e a986 95bd bfec a33d
00000320: cf3e 7dbf 38b7 203f 6264 cfbd a395 b9bf
00000330: d4c8 32be d686 073f 276d 0740 2408 f0bf
00000340: b030 fdbe 72bf be3e 215c b03c 505f 80bf
00000350: 011c c5be fe39 20bf 651e d9bf a259 1cbf
00000360: 2678 37bf 262f 94bf dc34 57bd 2ba9 2abf
00000370: f922 b9bf d990 1b40 c49e 37be 5942 71bd
00000380: b997 47bf 7ced 723f ae37 72bf ff12 783e
00000390: 79ff d0be fca3 16bf 697c e83e 5402 11bf
000003a0: 272b ea3f f765 d33f 7849 8f3d 2438 9d3f
000003b0: f58e f1be c5fe 1840 e555 2bbf b53d 8a3e
000003c0: 29fb 25be ba0c e3bf 737f 19bf b12d b8bf
000003d0: 9f93 f83e 1c75 aa3f 272a 7bbe 98e6 293f
000003e0: 722a cdbe b602 28be 6194 b23f bc02 7bbe
000003f0: bd33 7abf 45c2 89bf 6ec9 633f 5436 dbbf
1.1133152 -0.25427333 0.28104654 -2.1600773 1.5455828 -0.062034536 0.4153872 0.89625955
-0.059910476 0.7735323 0.41604254 2.4596932 -0.33856562 -0.28122607 -1.0986482 -1.2112851
-1.3900454 0.6338243 0.50488025 -0.49834207 0.31032583 0.21282175 -0.1404019 -1.4301965
1.371144 -0.01785195 -1.0801177 0.32364035 -0.66699916 -1.4152409 -1.8648891 0.94460887
0.6975615 -0.98634714 -0.18177208 1.5989738 -1.1311127 0.90461016 0.32072148 0.47603923
1.02162 0.4401182 1.2855877 1.1055444 -1.6246557 -0.48084578 0.039462112 0.73551553
-0.19672967 -0.25625974 1.6509485 -1.5294938 0.6720854 0.5307599 0.14713073 1.8056496
0.62396634 1.3756407 0.55512047 -0.18210755 0.7175086 -0.44099945 -1.5234585 -0.34240466
-2.6073413 0.4167456 1.4278076 0.2117272 -0.41419232 -0.034818895 -0.8950505 -0.8086978
-0.0011774838 1.0301896 -1.5156491 -0.30700168 -0.1684634 -0.64156836 0.7918037 0.06140155
0.10440508 1.1588743 1.2794116 0.20783348 -0.19972385 1.4048918 1.2380383 0.72832364
-0.24141212 -1.2514553 -0.7893382 3.4116995 -0.39873272 1.0773121 0.43941703 0.80801857
-0.6513161 0.94437784 -1.1552715 -2.7478983 -0.51218975 -0.0018352737 0.6319718 -0.14031848
-0.63451415 -0.11739433 -0.32271454 0.20173702 -1.1861962 0.70838165 -0.8250427 0.2812161
0.17151694 1.3092993 -0.00015530262 0.65507865 -0.5107565 2.073957 -1.3255074 -2.0073318
1.2991184 -0.70831054 1.2305965 -0.56902266 -1.4084932 -0.45329177 3.3836253 2.1092806
0.24547166 -0.36241168 0.30511725 -0.20741461 0.77567565 -0.10622496 1.8422838 0.39984706
-0.54164934 1.1078844 -0.2601039 0.95147914 -0.36767337 1.066522 -0.17965046 -1.7288153
-0.8302191 0.7340754 -1.3611138 -1.3920846 0.21939315 -1.2559294 1.221478 1.4166999
0.3555984 -0.54598755 0.24843317 -0.73724437 0.022302374 1.3266864 -0.94310856 1.3279269
0.99110633 -1.7380148 -0.32776895 1.5306536 0.9844519 0.14296551 0.45197913 -1.2309302
1.357186 -1.6119046 -0.020865517 0.26528275 0.7809998 -0.26688573 1.0235592 0.64034826
-1.0643485 -0.7859334 -1.8906798 -0.0875424 0.51444685 -0.32602096 -0.109614015 0.8790333
-0.9335414 0.3242588 0.91802806 0.9755452 -0.89833796 0.11692147 0.89206374 0.18653968
-0.44980612 -0.41139966 1.1643088 -0.20158158 1.2563722 0.3022159 -0.07301075 0.0800414
-0.98923963 0.6277957 -0.101265684 -1.449879 -0.17459422 0.5294012 2.1160371 -1.8752484
-0.49451208 0.37255436 0.021528305 -1.0029087 -0.38497928 -0.6258849 -1.6962401 -0.6107427
-0.71667707 -1.1576889 -0.052540645 -0.6666438 -1.4463798 2.4307158 -0.17931658 -0.058901165
-0.77965885 0.9489362 -0.9461621 0.24225996 -0.4081991 -0.5884397 0.45407417 -0.5664418
1.8294419 1.6515492 0.06996435 1.2282758 -0.4717938 2.39055 -0.6692794 0.27000204
-0.16209091 -1.7738259 -0.599601 -1.4388944 0.48550126 1.3316989 -0.24527799 0.66367483
-0.40071446 -0.16407284 1.3951532 -0.24512762 -0.97735196 -1.0762411 0.8897923 -1.7125955

embedding_layers.5.weight f4 [32, 8]
00000000: 8810 413f b458 9bbf 8a73 76bf b566 983f
00000010: 81e6 0abf baba 4f3f acfc 8dbd 68e4 10c0
00000020: 3d5c 513f ca9c a1bf 2a38 45bf 944c ad3e
00000030: 29f9 31bf 2871 c7bf 200a f4bf a29a d63f
00000040: aa5d 16bf d091 9c3f 5f31 973e d6b9 4fbf
00000050: cf91 9e3e 68c0 e53d 2bf1 573f cd6a 2cbf
00000060: 4cfe d6bd 7541 05bf 6deb f13e 3320 75bf
00000070: 6fc5 e03d 86f3 f03c 7207 46bf 88ce 753f
00000080: ac36 bb3d 0648 e8be 39ee 743f c59a c3bf
00000090: 4be8 a13d 438f c23e 0e9e 4c3f acaf a8bf
000000a0: b27c df3f 78d4 6a3f 47d5 a73f 0048 65be
000000b0: b779 3e3f c960 6a3f eff8 27bf d737 853f
000000c0: 0242 06be 8995 433f a473 79bf 0905 3bbf
000000d0: b3d2 ca3e 728a cabe bcb8 5cbd 0335 9f3f
000000e0: c280 bc3f 370a 1c3f 0064 df3f 7bfe 9a3e
000000f0: a59a 753f aff9 32bf 38f4 a53d 6108 9d3f
00000100: 8ff5 0d40 599e a03d 22c6 db3e f17e febb
00000110: 36a5 55bc 143a 7ebf 8688 b73d 6da1 94be
00000120: e781 3fbe 18af 82be 05fd 75bf d659 a33d
00000130: d6d6 dd3c f4bf 393e 9493 2d3f ad61 113f
00000140: 91e3 79bf 174e 533f 24a3 aabf ec4e 303f
00000150: 5183 0ac0 0c0f 173f 7f94 f13e 642a f9bf
00000160: f4b1 003f 06a6 18bf 4a49 a63f 637d 35bf
00000170: ccc8 c7bd 62e7 3a3f 4268 a5be ab0f 7bbe
00000180: 06fd dbbe 0ce7 973f ca64 b5be 7d2e 63bf
00000190: 39ac d73f eea1 c03e 20fd febf 2b25 91bd
000001a0: b0f4 f8bf da99 adbe db37 3e3e 2bec 08bf
000001b0: 9228 223d 42c9 ad3f 9907 543f 1306 dc3f
000001c0: 8bb5 a13e 08c3 173f 5de5 bc3e cdd4 503f
000001d0: 5cc7 f9be 3db3 1f3f 2c56 21bd b29f 82be
000001e0: accc df3e a20f 7e3f c5ea 1ebf ab70 2a3f
000001f0: 2bb4 63be c118 e0bf 89f6 f4bf 4f0b f6bf
00000200: 03c3 b13f 2585 9b3f b00a f53d 6781 cfbe
00000210: dc2a 85bf 549b 0140 5ba1 28be 8b17 163f
00000220: e277 283f 60b9 813f cc63 d23e e096 453e
00000230: d3c8 2e3d 95fa cbbf e641 0040 2f5d 963f
00000240: 857e 34bf 757c 6f3e 1f31 dcbe 79dc a73e
00000250: 69ec 41bf 99ef 773f 28b2 1abf c525 f6bd
00000260: 6cc6 98bd 00c4 8fbf 7d17 4e3e f944 023e
00000270: da5e 0fbf 480f 82bf 0e79 24c0 47ff d03f
00000280: d9d9 34bf 8846 22bf fd66 a53c e1af aabf
00000290: 8ee8 2ebe 89f0 3bbf 13fb 38bf d06f 2a3f
000002a0: ab4d c43d 358b 883e 6569 543d bdd8 0d3f
000002b0: 161d 703f 7259 903d 6d89 3e3d 137c 85bf
000002c0: 888e 043f e83f 1b3f 9bb2 843d 86cb cebe
000002d0: 3a2b 55bf 2005 05be 3cec 1ebf a34c 5fbf
000002e0: a5cd 833f da7a fb3d 5326 05bf fe42 5ebf
000002f0: 8b90 de3e e2bd 6bbe e127 05be 79eb a33f
00000300: 6d8e eebe e759 5abf efe7 9ebf 5eca 96be
00000310: b2de 54bf ae41 793f 016e af3e 7952 c53e
00000320: c1fd 8dbe f170 d6bf f9e5 6abf cb22 9ebf
00000330: 1696 763f 6d1e 94bf e2d5 9d3e 4c39 843f
00000340: 0c5d babf dcbf a5bf f1dc cb3e 75dd 9b3e
00000350: 3952 493f 142e 823e 68f2 e63c 4860 cebe
00000360: b4bb 433f 7205 783f a238 dc3c d68c 8fbd
00000370: f439 7abd db0c 49bf 0340 f83f 898a b8bf
00000380: de03 503f 0270 8a3e f1fa 36be 4e71 b93e
00000390: 7a25 c83e 850a a2bd 06ed c83f adc4 88bf
000003a0: 9b8e 3ebf 3831 623e 5a23 553f 7e48 3c3f
000003b0: 51af 49bf 6cd7 d7bd a624 9fbf 2894 a63e
000003c0: cdda 23bf 14e4 9f3e 3a64 a9be 30c7 4c3e
000003d0: 110a cd3e dd5f e03f a4ba c63f 2b6d ccbf
000003e0: 6523 cfbf 8be1 483f 5b9d de3e 014e 82bf
000003f0: 4570 38bf 3f6f 25bf 11ee 293f b09d 54bf
0.7541585 -1.2136445 -0.9627005 1.1906344 -0.5425797 0.811443 -0.06932959 -2.2639408
0.8178137 -1.2625973 -0.77038825 0.33847487 -0.69520813 -1.5581408 -1.906559 1.676594
-0.5873667 1.2231998 0.29529855 -0.8114294 0.30970618 0.11218339 0.8435237 -0.67350465
-0.10497722 -0.52053005 0.47249928 -0.9575226 0.109751575 0.029412996 -0.7735511 0.96018267
0.09141287 -0.4536745 0.95676 -1.5281607 0.079056345 0.37999925 0.7992867 -1.3178611
1.7459929 0.9173045 1.3111962 -0.22390747 0.7440447 0.9155393 -0.6561422 1.0407666
-0.13111117 0.7640005 -0.9744208 -0.7305456 0.39613876 -0.3955875 -0.053887114 1.2438053
1.4726794 0.60953087 1.7452393 0.30272278 0.95939094 -0.69912237 0.08103222 1.2268182
2.2181127 0.078427024 0.429246 -0.0077665974 -0.013039878 -0.9930737 0.08961587 -0.29029408
-0.18701898 -0.2552421 -0.960892 0.07976119 0.02707998 0.1813963 0.6780331 0.56789666
-0.97612864 0.8254103 -1.3331037 0.68870425 -2.164265 0.59007335 0.47183606 -1.9466062
0.50271535 -0.5962833 1.2991116 -0.7089445 -0.09755096 0.7300931 -0.32306105 -0.24517696
-0.4296648 1.1867385 -0.35428458 -0.8874281 1.6849433 0.37623543 -1.9920998 -0.07087167
-1.9449673 -0.33906442 0.18575995 -0.53485364 0.039589472 1.3577044 0.82824093 1.7189354
0.3158382 0.5928197 0.3689374 0.8157471 -0.48784912 0.6238287 -0.03938882 -0.25512463
0.4371084 0.99242604 -0.6207698 0.6657817 -0.22236697 -1.7507554 -1.9137737 -1.9222201
1.3887638 1.2150007 0.11964929 -0.40528414 -1.0403705 2.0251055 -0.16467802 0.58629674
0.65807927 1.0134697 0.41091764 0.19295835 0.04267199 -1.5935847 2.0040221 1.1747187
-0.70505553 0.2338732 -0.43006226 0.32785395 -0.7575136 0.9684997 -0.60428095 -0.12018923
-0.07459721 -1.123169 0.20126148 0.12721623 -0.56004107 -1.0160913 -2.5698886 1.6327904
-0.7064491 -0.6338887 0.02019071 -1.3334924 -0.170809 -0.734139 -0.7225811 0.6657686
0.095851265 0.26668707 0.051858325 0.5540884 0.9379438 0.0704831 0.04651778 -1.042849
0.51779985 0.6064439 0.06479379 -0.4038965 -0.83269083 -0.12990236 -0.62079215 -0.87226313
1.0297133 0.122792915 -0.52011603 -0.8682097 0.43469653 -0.23021653 -0.13003494 1.2806236
-0.46593037 -0.8529343 -1.241453 -0.2945127 -0.83152306 0.97365844 0.34263614 0.38539484
-0.2773266 -1.6753217 -0.9175716 -1.2354368 0.9632276 -1.1571785 0.30827242 1.0329986
-1.4559646 -1.2949176 0.39817002 0.30442396 0.78641087 0.2542578 0.02819176 -0.40307832
0.7645829 0.9688331 0.026882473 -0.07009284 -0.061090425 -0.7853524 1.9394535 -1.4417278
0.812559 0.2703858 -0.17869164 0.36219257 0.39091092 -0.07912163 1.5697334 -1.0685021
-0.7443635 0.22089088 0.8325707 0.73548114 -0.78783137 -0.10539135 -1.2433059 0.3253491
-0.6400574 0.31228697 -0.3308428 0.19997859 0.40046743 1.7529255 1.5525708 -1.5970815
-1.6182677 0.7846915 0.43479428 -1.0180055 -0.7204631 -0.64622873 0.66378886 -0.8305311

embedding_layers.6.weight f4 [32, 8]
00000000: 06e5 073f 9f8c ff3e b7b4 24bf 0c6a 503f
00000010: 46ce 3a3e 5617 ac3e 704f 07bf d7a2 a4be
00000020: 11fe 4f3e 1b7c 1f3f fe2f a33e 6607 8f3f
00000030: fec9 0b3e 0e94 6abf ffe2 97be 7a21 3a3f
00000040: 6064 ee3e 77c4 ef3e 42fd 86bf 6226 e3bf
00000050: 1ff8 e53e 3888 07be cf60 13c0 17ea 10bf
00000060: e756 f4bd 5bfc 903e 3f04 5dbf 6b83 8e3f
00000070: 277b 53bf 57d4 bcbe 6fa1 c43f 6059 ac3f
00000080: bdd2 aa3f 2a5b 243f e2bd 3bbe 4ac6 94bf
00000090: 14f7 063f f51e 13bf 6226 133f 56fe 803f
000000a0: 1e04 d2bd e538 3abf dace 183f 2833 f3be
000000b0: 5944 1140 5362 bf3f 672a 353f ab5f 4bbf
000000c0: 5d4e 4c3f cfa8 663f 72a3 2dbf dfbe 90bf
000000d0: c802 273f 2d26 2a3e 1c3d 943f 81e4 4ebe
000000e0: 6fb7 61bd 1db1 29bf ff0a 36bf 3217 403f
000000f0: 90a1 cb3f 105d e13f 5278 8c3e c337 e0be
00000100: 9ae9 de3e cfb8 76bf e77f 873f f05f c53d
00000110: dbce 7c3c 44be a9bd 704d cf3f f18d b93f
00000120: afcb 483f 3a8c 163f cbde 263f 162b 593f
00000130: d4c5 99bd 441f 833f 72da 563f 5c4e ef3f
00000140: eca5 8a3f 64dc 1c3f 1f41 383e bd5a 4f3e
00000150: 62c0 70bf 6dc4 5dbf 82c7 7e3f 5e87 1ebf
00000160: 5414 36bf e79c 1b3f 6cb1 c0bf 6ab5 1a3f
00000170: a787 e0be 40bb 7dbe 02ec 5e3e 2432 21bf
00000180: 8096 47be f53c 083d 835f 15bf d30d 6a3f
00000190: c26e 193f 4750 05c0 a3a7 66bf e276 343f
000001a0: 2523 c33e fa29 28bc a94f 093f 18ac 863e
000001b0: 58ab 4d40 20e1 973e 7582 2cbf 9eaa a6bf
000001c0: 6786 a53e ea30 8d3f ca7a b8bf 429f a8bf
000001d0: 7de1 a43e 0c05 e13d 53e1 f7be 0eb4 a33e
000001e0: 1413 763f 9bcb ac3e 3c8a 9fbf a855 e9ba
000001f0: 4ee6 b43f e97e 0abd 267d d5be a3f5 d23f
00000200: 1294 1e3f d883 d3be 0cc4 953e 41cd 3abf
00000210: 851b 90be e73e c03f 1b0e 57bf caf8 81bf
00000220: 1378 223f 61e0 c0bf 19ef b43f 32df 473f
00000230: a72f 163f 085f 183f 831f febf aa8f 33bf
00000240: caae d5bf 2b64 0bbf 68ce e53e d2be 073f
00000250: 10af a43f 1540 653f 6279 343f 6dea 9fbf
00000260: 63a7 e93e a3bd e3be e583 9bbf 1143 dbbd
00000270: 9b0a d43e 9cd8 6fbe 3d71 0abf e02b b63f
00000280: 70f1 86bf 9bc2 c8bf 98a1 a8bf 04ec eb3e
00000290: 8513 1b3d 1369 2cbf 0743 b0bd 5870 9cbf
000002a0: 27d1 ab3f 17fa 39bf c53f 15bf 81db 033f
000002b0: a678 cb3e 9c15 9cbe c3ce 7bbf 8da7 d3be
000002c0: d43a c7be 0e44 813d 2993 d6bf 85e8 eabe
000002d0: 7284 54bf b6d7 3b3e 7651 c4bf d4b2 56bf
000002e0: 3247 82bf fe16 93be fc7e be3f f03e 603e
000002f0: 7091 823f 9452 b6be 0781 99be d4f1 5c3e
00000300: 5932 d3bd 3b3a 37bf 285e dc3f 12eb 943f
00000310: 2486 6bbf 896b 8bbe 2470 9d3f bd2c 8fbe
00000320: 6106 f7bf dac6 023f d73a f8be 7d49 12bf
00000330: e76b 1d40 dfeb 333e e135 52bf ed12 c43e
00000340: 26ec 2bbf 7c56 fe3e 47d7 08c0 0f75 a0be
00000350: 5ab7 1e3e ec5f 0d3f be00 febc bd12 bbbe
00000360: 6be1 193f efca 27c0 8330 023e 55d1 2cbf
00000370: a82a a3bc 4c92 193d fec6 debf 7ae6 53bf
00000380: d418 163f 31c4 15be 5f24 e33e b6bd 81bf
00000390: 835f 2abf 0a0a 343f bc55 a13f 859c 89bf
000003a0: 737f 06bf c0f2 31bf 8b11 1abf 3f72 99bf
000003b0: fe99 923f 0091 883f c08d b43e b3a5 e6be
000003c0: ccee 91bf 3a70 003f 07d9 e0be 0140 f0bf
000003d0: d90d 313f cee6 233f d5bc ef3f a883 873d
000003e0: 42de cd3e d1b7 ac3f fd13 0d3f 4a0d 17be
000003f0: 4b0f dbbd f990 cebf aad7 5b3f 6895 1cbd
0.5308384 0.49911973 -0.6433825 0.81411815 0.1824275 0.33611554 -0.52855587 -0.32155487
0.20311762 0.62298745 0.31872553 1.1174133 0.13651273 -0.91632164 -0.29665372 0.7270733
0.46560955 0.46829578 -1.0546038 -1.7746089 0.44915864 -0.13235557 -2.3027837 -0.5660719
-0.11930638 0.28317532 -0.86334604 1.1133856 -0.8260979 -0.36880752 1.5361766 1.3464775
1.3345562 0.64201605 -0.18334153 -1.1623013 0.5272076 -0.5746911 0.5748044 1.0077617
-0.102546915 -0.72743064 0.5969063 -0.47499967 2.2697966 1.4951881 0.70767826 -0.7944285
0.7980707 0.9010133 -0.6782752 -1.1308249 0.6523862 0.16616125 1.1581149 -0.20204355
-0.055106577 -0.6628588 -0.7111053 0.75035393 1.590868 1.7606525 0.27435547 -0.43792543
0.435376 -0.96375746 1.0585908 0.09637439 0.015430178 -0.082882434 1.6195507 1.4496442
0.78435796 0.5880772 0.65183705 0.8483137 -0.07508436 1.0243917 0.8392707 1.8695788
1.0831885 0.6127379 0.17993592 0.20249458 -0.9404355 -0.86627847 0.99523175 -0.61925304
-0.7112477 0.6078629 -1.5054145 0.60433066 -0.43853495 -0.24778461 0.21769717 -0.62967134
-0.19491005 0.03326126 -0.58348864 0.91427344 0.5993463 -2.0830247 -0.90099543 0.704939
0.3811275 -0.010263914 0.53637177 0.26303172 3.213583 0.29663944 -0.6738656 -1.3020818
0.32329103 1.1030552 -1.4412472 -1.3173602 0.32203284 0.10987291 -0.48414096 0.31973308
0.9612286 0.3374909 -1.2464061 -0.0017802017 1.4132783 -0.033812437 -0.41697043 1.6481212
0.6194469 -0.41311526 0.29251134 -0.7296944 -0.28145996 1.5019196 -0.840059 -1.0154049
0.6346447 -1.5068475 1.4135467 0.78074944 0.5866646 0.59520006 -1.9853367 -0.7014109
-1.6693966 -0.5444972 0.44884038 0.53025544 1.2865925 0.89550906 0.70497715 -1.2493416
0.45635518 -0.4448062 -1.2149626 -0.10706151 0.4141434 -0.23422474 -0.5407904 1.423214
-1.0542431 -1.5684389 -1.3174314 0.46078503 0.037860412 -0.6734783 -0.086065345 -1.2221785
1.3423203 -0.7264723 -0.5830043 0.5150681 0.39740485 -0.30485237 -0.9836237 -0.4133877
-0.3891207 0.063118085 -1.676366 -0.45880523 -0.83014596 0.18344006 -1.533736 -0.8386662
-1.0177977 -0.2872848 1.4882503 0.21899009 1.0200634 -0.35609877 -0.29981253 0.21576625
-0.103123374 -0.7157323 1.7216234 1.1634238 -0.9200156 -0.2723048 1.2299848 -0.2796382
-1.9298822 0.51084673 -0.4848239 -0.57143384 2.4597108 0.17570446 -0.8211346 0.3829569
-0.6715721 0.49675357 -2.1381395 -0.3133931 0.1549963 0.5522449 -0.031006213 -0.36537734
0.60109586 -2.621761 0.12713818 -0.67506915 -0.019917801 0.037493035 -1.7404478 -0.82773554
0.58631635 -0.14625622 0.44363686 -1.013602 -0.6655199 0.7032782 1.2604289 -1.0750891
-0.5253822 -0.6951103 -0.6018302 -1.198799 1.1453245 1.066925 0.35264397 -0.45048293
-1.1401 0.50171244 -0.4391558 -1.8769532 0.69161755 0.64024055 1.8729502 0.06616908
0.40208632 1.3493596 0.55108625 -0.14751163 -0.10696276 -1.6137992 0.8587595 -0.038228422

embedding_layers.7.weight f4 [32, 8]
00000000: a852 cabe 20f7 613f 9934 33bf fa44 a53f
00000010: f6c4 e43f 18f7 e0be b9ef cdbf 9386 073f
00000020: bc38 0dbf d90a 723f a5e2 92bf fe9e 10c0
00000030: 49fb 57bf 38b4 213f 77a5 1bc0 05a6 eabe
00000040: 0f66 403e 578a e13f 2825 5d3f 1867 6bbe
00000050: 4b8f 45be 298a 15be efae 97bd a94f 0f40
00000060: d81e 4abc 37ea 3e3f ab14 723f 47ec 2abe
00000070: 38db 09bf 33bb 57bf 4190 f83f 05a7 203f
00000080: 2335 b8bf 7e26 163f a86a 81be 78c7 943e
00000090: 895a 983f ebeb 9cbf e100 c63f 764b 973f
000000a0: da67 cbbd af07 b3be 2a61 4bbf 3779 65bf
000000b0: fd31 873f 9dec 953f 68c8 22bf 8d65 8cbf
000000c0: 3e94 9a3d f3a3 f83e e476 4d3c 7837 413f
000000d0: c888 403f dbb7 583f 23e1 d5bf 69ae 25bf
000000e0: 5d46 4cbe c26e 023f f5fc 7e3f 6d57 c6bf
000000f0: a821 a03e c375 bb3f 732c 813f d72f f93e
00000100: c37b 69be 71ca 9bbe 5122 efbe d89e 513e
00000110: c0dc 4d3f f630 2abf 2f1e 8ebf 41d8 ee3f
00000120: 58a9 fcbd e252 673e 7596 5abe b1de ca3e
00000130: b349 56be b50e 3fbf 1de1 96bd 4fff bfbd
00000140: 9d38 71bf 11b0 0f40 0ded f03f 240e e53e
00000150: 4d34 783f 7796 eebf 058f 1abf 7344 0bc0
00000160: eb03 debe 9047 1e3e e3ad a73e 2858 a73f
00000170: 6c1c 603f e937 b8be fb12 cb3f 3536 a23f
00000180: a242 893f 9726 debe 6e6b 22c0 77d7 22bf
00000190: 4625 2dbf e1d5 073f 25c5 573f 245f 953f
000001a0: 1be2 83be 0e7b b3bf 6c19 ad3f bdbd 2a3f
000001b0: 871e 843f 2eb4 b7be 66be a83c 3ad4 4f3f
000001c0: 31d9 253f 3952 b83e c253 b6bf d72b c4bd
000001d0: f451 aa3f d30c bdbf 0c63 1f3e e2cb 0840
000001e0: 030b 82be 4050 b1bf 5568 aabe 4a2f 1bbf
000001f0: 191d e1bf 93ca b93d 6edd 4fbf b55b 18bf
00000200: 4635 d4be cf60 943e 191b c43d 320b 623f
00000210: 56f2 bbbf 802b 373f a34a 57bf e499 0d40
00000220: 09e4 c23e 7fac 39be dc61 ccbf 12ec bdbf
00000230: 19e6 2cbd 2c5b b13e 8c39 453f db71 52bf
00000240: bc99 4fbe 8236 573f 1d6d 97bd 0134 293f
00000250: 6e08 89bf 4061 64bc 33ef 47be a41a ed3f
00000260: ad25 393f 563d 863f 125e 0640 aa85 a73f
00000270: c71f 5abf 513b 81be eb6d c13e 2c03 993f
00000280: 2fb4 0a3f 0d87 34bf c542 713e e10f 02bf
00000290: c2f0 00bf 313b 873f c16f e1be 408a 253f
000002a0: a2ef 423f eb98 103f dfd2 abbf 60fb 37c0
000002b0: 8d4c 9abf c607 a0be 4889 3e3f 3c8d df3f
000002c0: c250 0b3f 3d8e 46be 61a4 37bf f876 50bf
000002d0: f350 2c40 5c1b d4bd 2e66 71bf 2413 89be
000002e0: 36eb a5bd 41e3 11c0 bf1b 173f 5e0c dbbf
000002f0: af33 e0be a14e 02bf 35a0 8fbf 08cc 00bf
00000300: 8baa b63e c204 723f f4ac 0fc0 1c28 d63d
00000310: c5b9 273e 790f 423f cc7e 833f 1ac7 90bf
00000320: ae07 bcbf a74d babf cbba 65bf c1ea afbf
00000330: 0b57 a8bf 02d7 0c40 66a2 563f 0295 6d3f
00000340: b334 5abf 4f27 c2bf 5cc7 44bf 1916 343f
00000350: 40e1 65bf 9df4 dcbe 7e57 2c3f 0b9c a73f
00000360: d2cc 9b3e 0547 4a3f 09e6 073f ce11 a33d
00000370: 1e62 07bf d64f b83d 2043 5a3f ee6f b0bf
00000380: 42fe a6be 910f 1d3f 8c0d 68be 290b 973e
00000390: a26b abbe 21c4 db3f 7731 5c3e 45e8 a23f
000003a0: 085f 1fbf 746a fe3f a0f1 9c3e 95a8 6e3f
000003b0: dbbd 1ebf 1807 02c0 f058 b73f 039e 153f
000003c0: 99e4 18be 69e6 18c0 d6c5 d4be 573e 73be
000003d0: 099f bebe 30b1 723f 392a aabc ffcc 93bf
000003e0: 983b 3abf d3be fdbd eefa 343e b1e9 4a3e
000003f0: 5f38 1b3d 6236 27bf 0459 19bf d06e 84bf
-0.39516187 0.8826771 -0.7000213 1.2911675 1.7872608 -0.43938518 -1.6088783 0.5293972
-0.55164695 0.945478 -1.1475416 -2.259704 -0.84367806 0.63165617 -2.4319742 -0.45829788
0.18788932 1.7620343 0.8638482 -0.22988546 -0.19292943 -0.14603485 -0.07406413 2.239237
-0.012336455 0.74576133 0.94562787 -0.16691695 -0.53850126 -0.8427002 1.9419023 0.6275485
-1.4391216 0.58652484 -0.25276685 0.29058433 1.1902629 -1.2259496 1.5469018 1.1819904
-0.099319175 -0.349668 -0.79445136 -0.89638084 1.056213 1.1712834 -0.63587046 -1.0968491
0.07547806 0.48562583 0.012540553 0.75475264 0.7520871 0.8465554 -1.6709331 -0.64719254
-0.19948716 0.50950253 0.9960473 -1.549543 0.31275678 1.4645313 1.009169 0.4866931
-0.22801118 -0.30427888 -0.4670587 0.2047075 0.8041496 -0.6648096 -1.1102961 1.8659745
-0.12336987 0.22590211 -0.21346457 0.39623025 -0.20926552 -0.74631816 -0.07367156 -0.09374868
-0.9422701 2.2451212 1.8822342 0.4473735 0.96954805 -1.8639668 -0.6037448 -2.1760528
-0.43362364 0.15456986 0.32749853 1.3073778 0.8754337 -0.35980156 1.5865167 1.2672793
1.072346 -0.43388817 -2.537807 -0.63610023 -0.67635 0.5306073 0.84285194 1.166966
-0.25758442 -1.4021928 1.3523383 0.6669577 1.0321816 -0.35879654 0.020598602 0.8118321
0.6478453 0.3600023 -1.4244311 -0.09578674 1.330626 -1.4769539 0.15565127 2.137444
-0.25399026 -1.3852615 -0.33282724 -0.6061903 -1.7587005 0.09071841 -0.8119725 -0.59514934
-0.41446894 0.2898011 0.09575481 0.8829833 -1.468333 0.7155075 -0.8409826 2.2125177
0.38064602 -0.18132208 -1.5967364 -1.4837668 -0.042211626 0.3463987 0.77040935 -0.8220498
-0.20273489 0.8406755 -0.073938586 0.66094977 -1.0705698 -0.013939202 -0.19524841 1.8523755
0.72323114 1.0487468 2.0994916 1.3087666 -0.8520474 -0.25240567 0.37779173 1.1954093
0.5418119 -0.7051857 0.23560627 -0.5080548 -0.5036737 1.0564939 -0.44030574 0.6466408
0.761469 0.56483334 -1.3423728 -2.8747177 -1.2054611 -0.3125593 0.74428225 1.7464976
0.544201 -0.19390197 -0.717352 -0.8143153 2.6924407 -0.10356781 -0.9429654 -0.26772416
-0.081015036 -2.2794955 0.5902671 -1.7113149 -0.4378943 -0.5090123 -1.1220766 -0.50311327
0.3567699 0.9453851 -2.2449312 0.10456869 0.16379459 0.7580486 1.027307 -1.1310761
-1.4689844 -1.4554948 -0.8973815 -1.3743516 -1.3151563 2.200623 0.8384155 0.9280549
-0.8523666 -1.5168246 -0.768667 0.7034622 -0.8979683 -0.43155375 0.67321 1.3094496
0.30429703 0.7901462 0.5308538 0.0796238 -0.5288409 0.089996025 0.85258675 -1.3784158
-0.32615858 0.6135188 -0.22661418 0.29500702 -0.33480555 1.7169229 0.21503244 1.2727133
-0.6225438 1.9876237 0.30653095 0.93225986 -0.62008446 -2.031683 1.4324017 0.5844423
-0.14930953 -2.3890631 -0.41557187 -0.2375425 -0.3723071 0.94801617 -0.020772086 -1.1546935
-0.7274718 -0.123899125 0.17673847 0.19815709 0.037895557 -0.65317357 -0.5990145 -1.0346317
